ES1/rpi/models/dht_mlp.tflite (tflite, 75544 bytes, 6 tensors)

dense_2/bias f4 [2]
000000 03 63 0a 3f 5c 3c 7b 3f
       0.5405733 0.98138976

dense_1/bias f4 [128]
000000 e0 79 44 3f 17 b3 55 3f e4 6f 8c bc 00 00 00 00
       0.76748466 0.83476394 -0.017143197 0.0
000010 1d 5e 36 3f 76 3d 91 be 6d 9b 5e 3f f9 98 76 3f
       0.71237355 -0.28367203 0.8695591 0.9632717
000020 21 99 51 3f 17 36 ee bc 80 3e 88 bc 68 cc 6e 3f
       0.8187428 -0.029078526 -0.016631365 0.9328065
000030 34 35 4e 3f e2 b1 15 3f 1e f3 f6 bc d2 8f 4e bd
       0.8054993 0.5847455 -0.030145224 -0.050430126
000040 f8 35 46 3f e5 05 8b bd 73 62 4f 3f 11 3d 6a 3f
       0.774261 -0.06788234 0.81009597 0.9149943
000050 22 dc 6e 3f 32 3a 67 3f bd 99 5e bc 0d 39 40 3f
       0.93304646 0.90323174 -0.013586459 0.7508705
000060 f0 e5 3d bd b6 2c 32 be 15 7c 63 3f a3 8d b9 bc
       -0.046361864 -0.17399868 0.8886121 -0.022650545
000070 98 9a 39 3f 5a 7f 39 3f 72 7b c6 be d1 4e bf bc
       0.72501516 0.7245995 -0.38766056 -0.023353012
000080 5c 43 cc bc fc e9 e5 3e 99 e3 66 3f c5 e1 14 3f
       -0.024934463 0.44905078 0.90191036 0.58156997
000090 a1 ff 1d bd 68 ea 4c bc 6f b6 7b bc 29 d3 3a 3f
       -0.038573865 -0.012507059 -0.01536332 0.72978455
0000a0 09 49 36 bd ca 78 c9 3e 42 ed 4f 3f 5b 6b 6d 3f
       -0.044503246 0.39349967 0.812214 0.92741936
0000b0 ee fc 49 bd 6a 13 aa 3e bc 2a 67 bc f1 8a 61 3f
       -0.04931348 0.33217937 -0.01410931 0.8810263
0000c0 aa 5a 2e 3f 13 c7 7e 3f 82 7c 0a 3f 72 53 5b 3f
       0.6810709 0.99522513 0.54096234 0.856742
0000d0 74 26 a8 bd 31 47 5e 3f 15 38 5d 3f d2 f8 44 3f
       -0.08210459 0.8682738 0.864137 0.7694217
0000e0 3c c6 5a bd b7 c7 57 3f 65 47 0a 3f 1d 04 37 3f
       -0.053411707 0.84289116 0.5401519 0.7149065
0000f0 9a be 5a 3f 3c d3 62 3f a4 ae 27 bd 3b 76 b6 bc
       0.85447085 0.8860357 -0.040938035 -0.022273174
000100 d7 e7 7d 3f 35 59 33 bd b3 51 1e 3f c0 31 22 bd
       0.99181885 -0.043786246 0.61843413 -0.039598227
000110 a4 09 65 3f 7e a4 03 bd 9a fd 01 3f 6d 56 6b 3f
       0.89467835 -0.032139294 0.5077759 0.9192875
000120 e7 8d da bc 05 4b 39 3f 43 5d 4d bd 1c 30 3c 3f
       -0.026678992 0.72380096 -0.05013777 0.7351091
000130 42 de 2e 3f c9 ac 22 3f d9 cd 1b 3f f8 90 37 3f
       0.6830789 0.635449 0.60860974 0.7170558
000140 1d 54 72 3f 04 62 f6 3e d5 ed 65 3f 93 77 5f 3f
       0.94659597 0.48121655 0.8981603 0.8729183
000150 46 74 b8 bc 84 bd 4f bd 46 ba 19 bd da 0f 1f bd
       -0.022516381 -0.050717846 -0.03753116 -0.038833477
000160 b8 1f 58 3f e7 39 d0 bc 86 a2 c6 3e ae 8c 47 bd
       0.844234 -0.025418235 0.3879587 -0.048718147
000170 0f 86 cd 3e 84 d8 a3 bc 80 85 67 3f 94 10 3f bd
       0.4014134 -0.020000704 0.9043808 -0.04664667
000180 da 49 bd bd 2d 54 44 bd 09 74 f0 bc e1 ca 30 3f
       -0.09242602 -0.04793184 -0.029352205 0.6905957
000190 b3 75 99 bd 5e 07 5e bd 97 73 6f bd 9c ea 70 3f
       -0.074931525 -0.054206245 -0.058459844 0.94107985
0001a0 07 f9 0c 3f 08 6b 96 bd 33 b5 f6 bc 60 78 80 bc
       0.55067486 -0.07344633 -0.0301157 -0.0156824
0001b0 39 f8 64 3f d5 16 01 3f 8d 1d 33 3f 56 34 18 3f
       0.8944126 0.50425464 0.69966966 0.5945486
0001c0 9e 15 80 3f 45 4a 61 bd ef a2 4e 3f 84 1a 64 3f
       1.0006597 -0.05500247 0.80717367 0.8910296
0001d0 65 d4 5f 3f bf 5d 5d 3f 69 59 05 bd 35 41 39 3f
       0.87433463 0.8647117 -0.03255597 0.72365123
0001e0 4f 15 90 bc 7c 06 3f 3f 59 b3 21 bc 3f 6e 28 3f
       -0.017588286 0.7461927 -0.00986942 0.6579322
0001f0 06 43 26 3f 0e 1f ce bd 56 33 e3 3e 44 78 73 be
       0.6494602 -0.10064517 0.44375104 -0.23776346

dense/bias f4 [128]
000000 ff 31 66 3f c8 10 2a be 3e 40 01 bf f5 7f 27 be
       0.8992004 -0.16607964 -0.5048865 -0.16357405
000010 54 22 6a 3f f9 19 62 3f 6d f4 bd be eb 54 20 be
       0.9145863 0.8832088 -0.37100545 -0.15657394
000020 0d ca ba 3e 0b de 8b be 72 a1 8e 3e 17 5d 6e be
       0.36482278 -0.27317843 0.27857548 -0.23277698
000030 d1 5a 96 be 4b 6c f7 3d 44 f6 3a be fe 61 33 3f
       -0.29366162 0.12081202 -0.18258005 0.700714
000040 95 0b e6 be a3 69 a1 bc c9 ca 88 be 38 00 31 3f
       -0.4493071 -0.019703692 -0.26717213 0.6914096
000050 53 a9 4a be 90 48 d0 be ce b4 61 3f c4 45 05 bf
       -0.19791155 -0.4068036 0.8816651 -0.5205958
000060 6e 40 4d 3f f9 7e b7 be f9 4e c2 be 58 a6 71 be
       0.80176437 -0.3583906 -0.37950876 -0.23598611
000070 4e fc c3 be b5 42 7e be 58 7f fa 3d a9 6b b7 be
       -0.3827843 -0.24830134 0.1223132 -0.35824326
000080 b9 17 c2 be 59 73 ee 3e 67 d4 a3 bd 7f 15 2d 3f
       -0.37908724 0.46572378 -0.07999497 0.67610925
000090 f8 28 b9 be ba ab 52 3f 4e ff 5d 3f 0a 08 fa be
       -0.3616407 0.82293284 0.8671769 -0.48834258
0000a0 0d 1f 4a 3f a4 05 15 be fa e1 98 be 1d 9c 0e bf
       0.7895363 -0.14552933 -0.29859906 -0.5570696
0000b0 a8 fd 98 be 7e 84 b7 be 7c b6 7d 3f 78 69 39 bd
       -0.29881024 -0.3584327 0.99106574 -0.0452666
0000c0 81 c7 e1 be 13 77 47 3f 26 a9 72 3f 7e 86 8a be
       -0.44097522 0.7791607 0.9478935 -0.27055734
0000d0 92 46 94 be 92 7e da be 48 c0 96 be 95 7b 0b 3f
       -0.2896009 -0.4267469 -0.29443574 0.54485446
0000e0 6b 49 8f be b9 57 63 3f c9 76 e0 be ee 9c 69 3f
       -0.279857 0.8880573 -0.43840626 0.9125508
0000f0 52 da 70 3f 85 e7 74 3f 84 c9 95 be b8 12 05 bf
       0.9408313 0.9566577 -0.29255307 -0.5198169
000100 b0 51 6e be 45 55 cb be 13 57 a7 be 23 a3 5f be
       -0.23273349 -0.39713493 -0.3268362 -0.21839575
000110 90 20 f8 3e d5 92 65 3f 8b a2 ff be 10 a3 78 3f
       0.48462343 0.8967717 -0.49928698 0.97123814
000120 bd f1 9e be 1e 14 d2 be af 68 8c be 5d 09 f5 bd
       -0.31043807 -0.41030973 -0.27423617 -0.119646765
000130 52 d5 f5 be 7a 70 9c be fe f5 8f be 99 63 5a 3f
       -0.48014313 -0.30554563 -0.28117365 0.85308224
000140 ff b8 49 3f 87 30 07 bf ce 39 c4 be 03 d2 a5 be
       0.78797907 -0.5280842 -0.3832535 -0.3238679
000150 aa 6d c9 be ff 00 a5 be 0c 38 c4 be d6 39 fd be
       -0.3934148 -0.32227322 -0.3832401 -0.49458188
000160 a9 76 80 3f 80 df c8 be 90 ce 9b be ae a1 5f 3f
       1.0036212 -0.39233017 -0.30431032 0.8735608
000170 48 bb 79 be a1 16 38 3f 29 11 37 3f b7 a7 9f be
       -0.24387848 0.7190953 0.7151056 -0.31182644
000180 9c 05 c9 be 9c e8 6c be 3c 29 3d bf da cf 5c 3f
       -0.39262092 -0.23135608 -0.73891044 0.86254656
000190 4d 4d db be f4 eb ab be c8 2c 82 be 0f 8a 4d 3f
       -0.42832413 -0.33578455 -0.2542479 0.80288786
0001a0 24 45 77 be 36 66 81 be 74 af 18 bf 96 6c d8 3e
       -0.24147469 -0.25273293 -0.5964272 0.42270344
0001b0 4d 0e c5 3e c1 18 64 3f 80 00 76 3f 20 26 be be
       0.38487473 0.8910027 0.9609451 -0.37138462
0001c0 0b 3c 56 3f 8d 89 1f bf 92 7f 94 be fd bb 9a be
       0.8368537 -0.6231926 -0.29003578 -0.3022155
0001d0 88 c9 92 be c4 e1 55 3f 51 25 bb 3e 0a a6 3d 3f
       -0.2866938 0.83547616 0.36551908 0.7408148
0001e0 bd b0 38 be 34 e5 1f be 7d 87 07 bf 0f dc 5c 3f
       -0.1803617 -0.15614778 -0.52941114 0.8627328
0001f0 9b 28 3f 3f 9d 41 c7 be df 59 0b 3e a5 97 e0 be
       0.74671334 -0.38917246 0.13608502 -0.43865696

sequential/dense/MatMul f4 [128, 12]
000000 f9 d7 a6 3d 7b 92 2d 3e 3f ee 2a be ff cd d9 3d
       0.08146662 0.16950409 -0.16692446 0.10634994
000010 67 52 70 bd c4 42 18 be 24 fa a5 3d ad bc 93 bc
       -0.058672335 -0.14869219 0.08104351 -0.018034304
000020 35 32 89 3e 16 48 37 3d bb 51 81 3d 34 fb 86 3d
       0.26796117 0.04474648 0.06314417 0.06590882
000030 f8 79 4e bc d4 28 9f bd fe cd 0a be 94 73 8c 3d
       -0.012602322 -0.07771459 -0.13555142 0.06857982
000040 08 48 0c 3e ca 2a 2c 3d 8e 9d db bd fd ad 88 3c
       0.13699353 0.042032994 -0.107234105 0.016684527
000050 ea 4b 39 3e e1 ff d4 bd 98 cc 39 bd 0e c7 ef 3d
       0.18095365 -0.104003675 -0.04536113 0.117078885
000060 56 3e 28 bf 76 2f e3 3d a2 ad d7 bd 73 54 02 be
       -0.6572012 0.11093037 -0.10531165 -0.12727527
000070 7b 23 c0 bd de 11 f4 bd da ad 0e 3e 11 7e 45 3e
       -0.09381767 -0.119174704 0.13933507 0.19286372
000080 9c 6d 97 3e 66 c9 df 3e 78 5a e6 3e 94 d3 ab be
       0.29575813 0.43708342 0.44990897 -0.3355986
000090 55 31 9e bd 6d 4d 0c 3d 71 c5 2f 3d 01 db 62 bd
       -0.07724253 0.034253526 0.042912904 -0.05538464
0000a0 ee af 6b 3d d2 42 2c 3e 38 1b 17 3e 67 59 92 3e
       0.057540826 0.16822365 0.14756477 0.28583834
0000b0 12 b8 04 3d 1b 04 02 be c2 22 8a be df f4 99 be
       0.032402106 -0.12696879 -0.26979643 -0.30069634
0000c0 92 f0 5a bc 81 cc ec 3d 44 2b 23 3e 31 7c 46 3e
       -0.0133630205 0.115624435 0.15934473 0.19383313
0000d0 08 ca 54 3d 8b 27 14 bd 0d df 6f be c5 0e 13 be
       0.051950485 -0.036170524 -0.23424931 -0.14361103
0000e0 cd f8 58 3d aa 4f 51 be 69 66 7f bd 03 a9 ab 3e
       0.05297165 -0.20440546 -0.062353525 0.33527383
0000f0 27 56 d5 bd 8c cf 4d bd c4 20 26 3e cd 43 03 3e
       -0.10416823 -0.05024676 0.16223437 0.12818833
000100 cd 06 1b 3b 37 f1 29 bd 6e b6 34 3d 35 b1 99 3d
       0.0023655177 -0.041489806 0.04411929 0.07504503
000110 39 cc 2d bd 53 fe 28 be be 2f 6b 3e cc 81 25 3d
       -0.04243109 -0.16503267 0.22967431 0.040406987
000120 9b dc c5 bd 92 ac 1b 3d 15 51 e9 3d c3 ca c6 3c
       -0.09661218 0.038006373 0.11392418 0.024266606
000130 30 65 16 3e 49 73 2c be dd e8 83 3e 13 3b 88 be
       0.14687037 -0.16840853 0.25763598 -0.2660757
000140 ba 5f 00 be f9 d6 12 be d7 3d 9b be 97 a7 2a 3f
       -0.12536517 -0.14339818 -0.30320618 0.6666197
000150 09 e2 c5 bd 2c 23 02 3d 6a 04 82 3e 0f 89 03 3d
       -0.096622534 0.031771824 0.25393993 0.03211313
000160 1d 6b 72 bd 06 78 99 bd 8b 41 bd bd ae e0 35 3d
       -0.059184182 -0.07493596 -0.09241017 0.044403724
000170 ee 72 14 bb ca ce 4b bd 55 ff 21 bd 1b 0c 20 bc
       -0.0022651511 -0.049757756 -0.039550144 -0.009768511
000180 b9 5d 31 be bf f5 d1 bd e6 82 56 be f5 dc d4 3d
       -0.17320909 -0.102519505 -0.20948371 0.10393707
000190 2b 93 bc bd aa f9 69 bd b9 c6 d9 3d 96 07 6d 3e
       -0.092077576 -0.057122864 0.106336065 0.23147425
0001a0 b2 8d 48 3e 67 4e 1e be 52 3e b2 be 74 81 92 3e
       0.19585302 -0.15459596 -0.34813172 0.2861439
0001b0 9a fe ad 3e 60 2f 2e bf 90 1f 10 3e 4e 39 18 be
       0.33983308 -0.6804104 0.1407454 -0.1486561
0001c0 7e d2 04 be c5 fa 80 3d b8 7c 7e bd ea 5f 48 3e
       -0.12970921 0.062978305 -0.06213066 0.19567838
0001d0 af 26 32 be b2 32 aa 3e 75 03 25 be 65 ad d2 3e
       -0.17397569 0.33241802 -0.161146 0.41147915
0001e0 11 a5 c1 bd 3a 86 d0 3d 0a 76 9e bd 42 aa 00 3c
       -0.09455312 0.10181852 -0.07737358 0.007853093
0001f0 f4 2b a6 3d aa 20 02 be a2 1d ea bd 22 f9 28 3e
       0.08113852 -0.12707773 -0.11431433 0.16501287
000200 d6 da ac bd 0f 38 d5 bc 4d 73 b9 3e 1e d4 f4 bb
       -0.08440177 -0.026027707 0.3622078 -0.0074715754
000210 38 bb 01 be ea 92 cf bd 43 bd 07 be 9b 6a d8 3d
       -0.12669075 -0.101354435 -0.13255791 0.105672084
000220 c8 68 5a 3e 4b 41 eb bd 85 13 49 3c 6e 15 f0 3d
       0.21329033 -0.11487063 0.01227272 0.117228374
000230 13 06 68 3d cb 8c f3 bc 4d 93 37 bd 3b d0 db 3d
       0.056646418 -0.029730221 -0.04481821 0.10733076
000240 b3 ce e4 3d 7a 1f ba 3d 5a 5b 06 be 60 c0 7a 3c
       0.11172237 0.09088035 -0.13120785 0.015304655
000250 d8 82 0b bc d6 61 89 bd 94 5b d4 3d 92 cd b9 bd
       -0.008515082 -0.06708114 0.1036903 -0.090724126
000260 8d 73 4d 37 26 3c b2 bd 6e 14 a4 bd 99 82 f7 3d
       1.2245856e-05 -0.08702879 -0.08011709 0.120854564
000270 c2 b3 e9 bc 62 5c 90 3c 2a c9 9f 3d 1b 53 27 be
       -0.028528098 0.017622177 0.07802041 -0.16340296
000280 d6 2b 55 3e f8 36 da bd 51 bb b0 3d ad 5b dc 3d
       0.20817503 -0.10655016 0.08629478 0.10759673
000290 7d cb fe 3d f9 2f d8 bd 5a 75 f1 be 8d 4a 8f 3e
       0.12441156 -0.10556025 -0.47159845 0.27986565
0002a0 09 9f 92 bd c4 77 e7 bc 57 61 d6 bd 9e e1 8b 3d
       -0.0715924 -0.02825535 -0.10467785 0.068301424
0002b0 07 06 6e 3c e3 69 1d bc b9 66 6c bd fc 7c 6e bb
       0.014527804 -0.009607765 -0.05771515 -0.0036390414
0002c0 7f 01 10 3e 3c 64 47 bd bc 4d 30 3d c0 29 88 3b
       0.1406307 -0.048679575 0.043042883 0.0041553676
0002d0 4e 75 e7 bd b7 87 14 be 61 88 0d 3e 33 d3 59 bc
       -0.11301671 -0.14504896 0.13821556 -0.013294983
0002e0 9b 7a 0e be dc 61 83 3d 96 8f d7 3d 4a 30 d8 3b
       -0.13913958 0.064151496 0.10525434 0.0065975534
0002f0 05 d1 37 be b0 2d 55 3d cd 5f d3 3e 41 42 e9 bd
       -0.17950828 0.052045524 0.41284028 -0.1138959
000300 43 6d 7d 3e d7 d0 27 be 47 d9 89 3e 6d 48 0e be
       0.24748711 -0.1638826 0.26923582 -0.13894816
000310 cb 1a e6 bd 88 34 91 be 76 cf 74 be 1c 53 8e 3d
       -0.11235579 -0.2836039 -0.23907265 0.069494456
000320 16 cf 87 be c6 87 35 3e ab 30 ea bc 61 5f ec 3e
       -0.26525182 0.17727575 -0.02858766 0.46166518
000330 d6 6c b3 ba ae 35 1c 3e 5a 41 4b 39 14 99 09 3e
       -0.0013689052 0.15254852 0.00019383934 0.13437301
000340 41 54 eb bd d9 4f 53 3d 8c 9c 4d be f0 f3 3c be
       -0.114906795 0.05158982 -0.20079249 -0.1845243
000350 75 95 4b 3d 05 13 77 3c 43 4b 1d 3d ff 0a 69 bd
       0.04970308 0.015080218 0.038401853 -0.056895252
000360 4e 3b 15 be 67 6d ce 3c 54 c5 a3 3c 7b b5 84 3d
       -0.14573404 0.025198651 0.019991554 0.06479927
000370 b6 d6 2e be 3b a5 ca bc 2a 0c ac 3d 44 34 da 3d
       -0.17074093 -0.024736991 0.084007576 0.106545
000380 9e bb 13 3e 6e 4e be bd e8 32 71 3d 84 aa fe 3c
       0.14427039 -0.09292303 0.05888644 0.031087168
000390 b2 99 06 3e e2 df 0f be 08 cb 02 be 15 71 99 3d
       0.13144568 -0.14050248 -0.12772763 0.07492272
0003a0 dd 6b 16 3e 17 db 09 be af b9 28 be f1 28 a5 bd
       0.14689584 -0.13462482 -0.16477083 -0.080644496
0003b0 11 82 46 3e c3 1d 21 3e 08 fd bb be b7 7e 80 3e
       0.19385554 0.1573401 -0.36716485 0.25096676
0003c0 6d 2d 99 3d 70 8f 04 3d 6c a9 2b be e8 80 63 bd
       0.074793674 0.032363355 -0.16763848 -0.055542856
0003d0 1a ae 81 bd b6 72 18 bc 75 14 78 3e 29 7f e2 3d
       -0.06332035 -0.009304693 0.24226554 0.1105941
0003e0 8c cc 28 3d d0 70 09 be 52 c9 28 be d5 c3 92 3d
       0.041210696 -0.13421941 -0.16483048 0.07166258
0003f0 86 2e 40 be 91 2a 9c 3d 35 95 02 bc ff 38 a9 bd
       -0.18767747 0.076253064 -0.007970144 -0.08262824

sequential/dense_1/MatMul f4 [128, 128]
000000 af 0c 3a 3e 6a bb 46 be af c0 01 bf 5e bc 19 3e
       0.18168901 -0.1940743 -0.50684637 0.15013263
000010 17 68 cf 3a 1e e8 9d 3e 45 43 d3 3d 0f e4 16 bd
       0.0015823868 0.30841154 0.10315565 -0.036838587
000020 b5 0f 29 be 13 3e 81 bb c5 e9 a2 be 2a 4b 02 bd
       -0.16509898 -0.0039441674 -0.31818977 -0.031809963
000030 99 ba 36 3d a5 d0 b8 3d 22 4a 62 be 33 d5 aa ba
       0.044611547 0.09024171 -0.22098592 -0.0013033509
000040 f3 2d 96 3c 00 a6 a2 be 5a 35 93 bd c8 75 9b be
       0.018332457 -0.31767273 -0.071879104 -0.30363297
000050 6e 5b f0 3c 7c 30 cf bd 04 55 9f 3b d5 ad 4e bd
       0.029340472 -0.101166695 0.0048624296 -0.050458748
000060 25 65 12 be 87 62 ff bb 7d 3b 12 be 11 be 87 bc
       -0.14296396 -0.007793728 -0.14280505 -0.016570123
000070 50 12 07 be c3 c7 4b bd 67 00 c7 3c d8 94 b9 bd
       -0.1319058 -0.049751054 0.024292184 -0.09061593
000080 1f 9b bf 3d 83 92 e3 bd b6 fd e7 3b f7 d5 86 be
       0.09355759 -0.11111929 0.0070798052 -0.26335117
000090 7a 63 4e bd 64 95 5b be 53 ed 01 3e d1 14 af 3c
       -0.050387837 -0.21443707 0.12688188 0.02137223
0000a0 4e 68 8f 3c 0b 15 d1 bd 6a 89 b8 3d 13 c2 2a bd
       0.017505791 -0.10209092 0.09010585 -0.04168899
0000b0 87 be 39 3d 40 24 a0 bd bc 30 0e be 98 3a 10 3d
       0.045347717 -0.07819414 -0.13885778 0.03521213
0000c0 97 e0 0f bd 9f dc 5d be 08 5e 3b 3d 6b 76 2f 3e
       -0.035126295 -0.21666192 0.045743972 0.17135017
0000d0 12 36 45 bc e6 1c 19 3e 0c 5b e7 bd 0f b2 55 bd
       -0.012036817 0.1495243 -0.11296663 -0.052171763
0000e0 10 75 b0 3d 4a c8 84 3e 33 ad ab 3e bf 84 4a bd
       0.08616078 0.25934058 0.33530578 -0.049443003
0000f0 0b 51 55 3d 62 f3 49 3e c2 c6 1a 3e 99 6a 8a 3d
       0.05207924 0.1972175 0.15114883 0.06758613
000100 56 7e 0b 3e cd 1b 10 3e 36 2e df bc 36 73 27 3e
       0.13622412 0.14073105 -0.027243715 0.16352543
000110 40 ee e4 bd 3c 0d 7a 3e 52 94 3b 3d e4 65 88 3d
       -0.11178255 0.24419111 0.045795746 0.06660059
000120 63 30 bb 3d 67 a1 8c 3d 24 94 e6 bd 8a 66 89 be
       0.091400884 0.068667226 -0.11258724 -0.26836044
000130 38 de 87 3d 37 98 af 3d d7 3f 4c 3e 18 0b 93 3d
       0.06634182 0.085739546 0.19946228 0.0717985
000140 85 55 90 bd f3 2c 18 3e 9b 23 b4 3d 2b 38 6a 3d
       -0.070475616 0.14860897 0.08795854 0.057182472
000150 e9 4e dc 3d 52 a6 3b bd 8e 48 0e 3d aa 6c c0 bd
       0.107572384 -0.045812912 0.034737162 -0.09395726
000160 03 cc 96 3c 34 ee 25 bb bd 12 80 3c 5e 55 05 be
       0.018407827 -0.0025318982 0.015633935 -0.13020846
000170 a0 22 95 bd 20 3d 69 be 6b ee 51 be 25 bd 8c 3b
       -0.07281995 -0.22777224 -0.20501105 0.0042950087
000180 74 4a ed bd d0 82 31 bc 28 d4 36 3e ab b6 f9 3d
       -0.115864664 -0.010834411 0.17854369 0.12193044
000190 d4 34 a9 bd de b8 3f be 8c b9 39 be f7 be 2b 3d
       -0.08262029 -0.18722865 -0.18137187 0.041930165
0001a0 a8 0d 98 bc 40 14 70 3b 2b 44 26 3e 75 b1 69 bd
       -0.0185612 0.0036633164 0.16236942 -0.057054
0001b0 53 a9 47 3d a8 cf 26 3d 68 fa 07 3e b0 7b 04 be
       0.048745465 0.04072538 0.13279116 -0.12937808
0001c0 77 5c 91 bd c0 c9 76 3e 42 08 92 3d cd fe fe 3d
       -0.070977144 0.24100399 0.07130481 0.12450943
0001d0 c6 3b 37 be 5e a1 ad 3d d8 7b d1 bc 60 8a 97 bc
       -0.17893896 0.08478044 -0.025571749 -0.0184986
0001e0 bb da ef 3d dd 9b 2a 3e 7f ad 36 3e a3 f2 9b bd
       0.117116414 0.1666102 0.17839621 -0.07614639
0001f0 dd b7 38 be 04 9f d5 bd fc 01 70 bc 42 d5 9c bd
       -0.18038888 -0.104307204 -0.014648911 -0.07657863
000200 4b 76 4c 3d 99 63 1e 3d db 8c 42 bf 33 6a ce 3d
       0.0499175 0.038669202 -0.7599618 0.1007885
000210 31 a8 69 3e bf ec 0d 3e f6 c2 2a be 80 74 54 bd
       0.22818066 0.13859843 -0.16675934 -0.051868916
000220 54 3e dc 3c d8 fa d4 bd 83 23 a6 bd 68 18 24 bd
       0.02688519 -0.10399407 -0.08112242 -0.040062338
000230 86 bf 28 bd 52 a1 c3 3d 6d f1 3c be df e1 d0 3d
       -0.041198276 0.09552254 -0.18451472 0.101993315
000240 58 4a 99 3d 50 79 d5 3c a2 cd bc bc 4c 89 1a 3c
       0.07484883 0.026058823 -0.023047272 0.009432148
000250 51 0a 3f 3d 7e 88 09 be bd e6 90 3e 71 b2 9f be
       0.046640698 -0.13430974 0.2830104 -0.31190827
000260 88 6a d3 3c ef 6f 38 bb 02 5d 90 bd 6b 87 a8 3d
       0.025807634 -0.002814289 -0.0704899 0.08228954
000270 4c 68 67 bd 37 f6 24 3c 45 dc 8c 3d 3d e1 7f bd
       -0.05649595 0.010068468 0.068779506 -0.062470663
000280 2d b0 d3 bd d8 72 d8 bd 62 f7 b0 bd 5f 28 72 3e
       -0.10336337 -0.1056878 -0.086409345 0.23648213
000290 0a cf 00 3e 70 11 14 3e a0 3e 5f 3e 0b 56 ac 3d
       0.12578979 0.14459777 0.21801233 0.08414849
0002a0 98 ea 67 3d 6e cf 51 3a 54 a3 38 3d 9b bb 25 3e
       0.05662021 0.0008003627 0.045077637 0.16184847
0002b0 5d c7 dc bd 4a 3b b1 bd 44 69 c3 3e 0b 43 b9 bd
       -0.10780213 -0.086538866 0.3816625 -0.090459906
0002c0 91 46 b9 bd ae 8a ce 3d 62 df da 3d a5 c7 2a bd
       -0.090466626 0.10085045 0.10687138 -0.041694302
0002d0 4a f0 be 3d 2f 70 8b 3e 47 d5 68 3d c4 6b 20 bd
       0.09323175 0.27234027 0.056844022 -0.039165273
0002e0 38 49 6c 3d 08 e6 17 3e 80 b9 78 3e 6c 38 d6 3e
       0.057687014 0.14833844 0.24289513 0.4183992
0002f0 d4 68 af 3e 46 18 00 3f 9b 65 f8 3c 43 3b 22 be
       0.34259665 0.5003704 0.030321887 -0.15842919
000300 1f b5 38 be 0f 1d 29 3e 93 3a 38 bc 12 9b 82 bd
       -0.18037842 0.16514991 -0.011244434 -0.063772336
000310 e3 e4 12 3e 2a 12 a5 3e f4 5c 05 3e 85 bf 84 3e
       0.14345126 0.3224042 0.1302374 0.25927368
000320 98 40 88 bd 61 1d f7 bd 9d 20 92 bd 89 f3 c5 3d
       -0.06652945 -0.120661505 -0.07135127 0.09665591
000330 27 a0 6e bd 1b dd b6 bd de 95 26 ba d9 a2 82 3e
       -0.058258202 -0.08928891 -0.00063547294 0.25514868
000340 19 02 f8 3b 01 96 ad 3c bd 50 36 be 6e d7 9a bc
       0.0075686094 0.021189691 -0.17804237 -0.018901553
000350 c0 63 a8 bd 15 e5 4f 3e af 2c 0c bc 47 09 39 bc
       -0.08222151 0.20302232 -0.008555575 -0.011293716
000360 d7 fe d3 3e dc ab 04 be 16 02 73 3d 41 08 be 3e
       0.41405365 -0.12956184 0.05932816 0.37115672
000370 4d 1d 26 bd 4d 02 93 3e 43 cd 3c 3e 52 e4 08 bd
       -0.040555287 0.28712693 0.18437676 -0.03342087
000380 22 6c ad bc 1e e9 da bd 74 ba 97 be 2f be e5 3d
       -0.021169726 -0.10688995 -0.2963444 0.11217915
000390 60 1d b4 3c cb 3a fa bd e2 b7 62 bd d6 8b 90 bc
       0.021986663 -0.12218245 -0.055351146 -0.017644804
0003a0 32 c8 98 3d 7d 43 cb bd bb 66 01 3d 45 9d b3 3d
       0.07460059 -0.09924982 0.031592112 0.08770231
0003b0 e9 7b da 3d 8b 2e 11 3e 2c e7 bf 3e 53 f1 d1 bd
       0.10668165 0.14177911 0.37481058 -0.10251107
0003c0 20 ce 26 3e 61 ce 06 be 2a 6d c2 3d 6a 8f e1 bd
       0.16289568 -0.13164665 0.09493478 -0.11013682
0003d0 d6 12 b9 3d d7 94 a3 bc 84 ed 37 3d 7c 30 0e 3e
       0.09036796 -0.019968433 0.044904247 0.13885683
0003e0 22 b3 19 3e 40 e6 e0 bd 86 9f 83 3d 07 6e 50 3e
       0.1500974 -0.10981417 0.06426911 0.20354472
0003f0 43 06 de 3d 80 2d 25 3e 15 16 28 3e 4a 02 c9 3d
       0.10841038 0.16130638 0.16414674 0.0981489

sequential/dense_2/MatMul f4 [2, 128]
000000 fd b9 2e 3e 31 fc b1 bd 1d 9f 4a 3d 5c ba 72 3d
       0.17063136 -0.0869068 0.04946815 0.059259757
000010 5e ed 85 be d3 57 c1 3e 21 c5 00 3e 68 87 b5 3d
       -0.2615766 0.37762317 0.12575199 0.08863717
000020 5f 5b 98 3e 51 5a d5 3c 9f 33 2e be f6 c6 ce 3e
       0.2975721 0.026044043 -0.1701188 0.4038617
000030 3d 84 fb bd e1 69 00 bd 65 d0 3b 3e ca 68 9d bd
       -0.12281082 -0.031350974 0.18341215 -0.076860026
000040 6d 96 f8 bb 2a 62 f7 3d c3 43 0b 3d fd da 7e 3c
       -0.0075862915 0.1207927 0.03400017 0.015555141
000050 04 57 b8 3d aa d7 39 3d aa 1b 24 be 2c 56 8e be
       0.09000972 0.04537169 -0.16026178 -0.2780012
000060 16 0b 9e 3d 17 f1 72 be 1f ac b9 3d 14 06 d2 bd
       0.07716958 -0.23724781 0.090660326 -0.102550656
000070 57 b3 10 be 2f f8 19 bd 10 f9 5a 3e 49 68 38 be
       -0.14130913 -0.037590202 0.21384072 -0.18008532
000080 bb 4d 22 be c3 41 57 bd 75 7d f3 3e d5 cb ae bc
       -0.15849964 -0.05255295 0.47556654 -0.021337429
000090 16 76 02 be 71 90 8b bd 95 82 3c bd 8c b3 70 be
       -0.12740359 -0.068146594 -0.04602297 -0.23505992
0000a0 33 bb 4e 3e c7 53 66 bd 82 52 69 3e 5f 2f 1d 3e
       0.20188598 -0.05623224 0.2278538 0.15350102
0000b0 27 65 29 3d 69 f6 8a 3a e1 ba 5f bc 51 42 1d 3e
       0.041356232 0.0010602 -0.013655395 0.15357329
0000c0 39 29 61 be 58 f8 3e 3e 67 10 44 bc b5 43 01 3e
       -0.21988381 0.18649423 -0.011966801 0.12623484
0000d0 80 58 ac bc 2e 03 42 bb 0f ae 00 3f 27 50 49 be
       -0.021038294 -0.0029603946 0.5026559 -0.19659482
0000e0 e0 5b 61 3e 93 20 e8 bc 83 08 c7 bb ef ed 81 be
       0.22007704 -0.028335845 -0.0060740127 -0.2537684
0000f0 a0 fc f2 3d 99 aa 28 3e 1d a0 5d be e5 8a 30 bd
       0.11864591 0.16471328 -0.2164311 -0.04310121
000100 e2 a9 7f 3e 0c b3 49 3d 77 f7 75 be a3 91 bb bd
       0.24967149 0.049243018 -0.24020182 -0.091586374
000110 fe ee 1b 3e 16 be f3 3d 1d 9b 6e bc f9 90 59 3e
       0.15227887 0.119014904 -0.014563349 0.21246709
000120 19 6e 20 3e af 51 96 be 91 ae 06 be ef f9 32 bd
       0.15666999 -0.29359195 -0.1315253 -0.043695386
000130 3e 81 54 be 51 e8 5c be a6 2b 3d be 0c af 05 be
       -0.20752427 -0.21572997 -0.18473682 -0.13055056
000140 5a ae b6 3d 83 c0 47 3c 00 39 fb 3d 36 e5 96 3d
       0.08919974 0.012191894 0.12266731 0.07367937
000150 88 ae a8 bd e4 b7 ab 3d e9 77 0c be 33 e1 c6 bc
       -0.08236414 0.08384684 -0.13717617 -0.024277305
000160 d9 f9 9c bc 59 12 59 be ef 7f 1b 3d 3c f6 55 3d
       -0.019162105 -0.21198405 0.037963804 0.05223678
000170 29 db 32 be 71 50 87 bd 23 ab e1 3d 0e b9 57 be
       -0.17466415 -0.0660714 0.1101897 -0.21066687
000180 e7 c0 22 be 08 2a 55 bd e7 f8 35 be 8c cf 0e be
       -0.15893899 -0.052042037 -0.1777073 -0.1394636
000190 88 34 16 bc 18 10 82 3e ae c0 38 bc ff 9b 6e 3d
       -0.009167798 0.25402904 -0.011276407 0.05825424
0001a0 1b 20 db ba 8e 02 fe bd eb 67 23 3c ae 49 96 bd
       -0.0016717942 -0.12402831 0.009973506 -0.07338272
0001b0 bf 41 84 3d bd fd 2d bc 0b 81 8f be 73 bc 65 3c
       0.064578526 -0.010619578 -0.2802814 0.014021981
0001c0 c9 49 b0 3e c2 5c 9b bd a5 f2 44 be 49 ca cf bd
       0.34431294 -0.075860515 -0.19233187 -0.10146005
0001d0 81 fc 35 3e 9c b2 0a bd 7f 03 d8 3d 0b e0 12 3f
       0.17772104 -0.03386174 0.10547542 0.5737311
0001e0 d2 dd 31 be f7 18 33 be 4e b1 88 bd 86 99 c8 bd
       -0.17369774 -0.17489992 -0.06674443 -0.09794907
0001f0 ed 97 53 3a 8f 5e 44 bd 24 d5 70 bd 0a 72 0a 3f
       0.000807165 -0.04794174 -0.058797017 0.5408026
000200 df 88 31 3d bf a7 84 3e e4 35 f7 bd f3 37 c4 bd
       0.04334342 0.2590923 -0.12070826 -0.09580984
000210 2a 56 79 3e 89 08 2b be 97 7f 22 3e dc ac 8d 3e
       0.24349275 -0.16702475 0.15868984 0.27670944
000220 1d ad d0 3d a4 3d a4 bd ef 1b 08 be 3c cd 22 3e
       0.10189269 -0.080195695 -0.13291906 0.15898603
000230 ad 81 8a 3e 92 64 fa 3c dc d5 18 be ce 78 27 bd
       0.2705206 0.030565534 -0.14925331 -0.040886693
000240 2a 3a df 3d 67 88 10 be 03 2a 16 3e e8 17 5f 3e
       0.10899766 -0.14114533 0.14664464 0.21786463
000250 6d af 8a 3e 6f 22 a6 3e 25 ae 35 be b0 06 9f 3e
       0.27086964 0.32448146 -0.17742212 0.3105979
000260 ee 92 f7 bd da 1a ac be 04 72 6d 3e b7 83 9b bd
       -0.120885715 -0.33614236 0.23188025 -0.07593482
000270 8b 88 23 3e ef af 8f 3d c2 d2 51 be ca 72 35 be
       0.15970056 0.070159785 -0.20490554 -0.1771957
000280 0e af 19 be 9c a2 6a 3c 6d 42 29 3e 89 19 d5 bc
       -0.15008184 0.014320996 0.16529246 -0.026013153
000290 7a f3 83 bc b0 b4 1a be 31 be 6c bd 73 85 7f 3e
       -0.01610731 -0.1510799 -0.05779857 0.2495325
0002a0 1a fb 8e bd 96 cb f0 3b 50 65 aa 3d 8d 2e 79 3e
       -0.069814876 0.007348488 0.08320105 0.24334164
0002b0 65 07 91 bd 67 b2 d3 3c e6 1d bc bd 99 70 1b 3e
       -0.070814885 0.025841905 -0.0918539 0.15179671
0002c0 47 b5 28 3e 49 f5 b0 3e dc 85 0e 3d 6a 58 06 3e
       0.16475402 0.34562138 0.034795627 0.13119665
0002d0 b7 13 cd bc f2 19 89 3e f6 14 09 3e af ca 54 3e
       -0.025033815 0.26777607 0.13386902 0.20780443
0002e0 65 cc 1e be d8 aa 71 3e 0d 3a c2 3b 4d ff 6a 3e
       -0.15507658 0.23600328 0.0059273303 0.22948952
0002f0 d5 f8 1a 3e f8 0d 32 3e c6 98 2e bd 74 08 14 bd
       0.15133984 0.17388141 -0.042626165 -0.036140874
000300 fe 3a ad 3e 70 f1 24 be 57 2f 16 3e 9a 62 b1 bd
       0.3383407 -0.16107726 0.14666496 -0.08661385
000310 f0 8a 4f 3e 69 8f 00 3d 4d 66 25 bc ba eb 54 3e
       0.20267844 0.031386767 -0.010095191 0.20793048
000320 58 cf e5 bd 05 c2 86 3e 98 df 01 be f1 d7 d6 3d
       -0.11221188 0.263199 -0.1268295 0.10490406
000330 e8 8a 2e 3e 08 80 11 3e 07 c4 db 3d 99 ac 1d 3e
       0.17045176 0.14208996 0.107307486 0.15397872
000340 71 2e b6 3e 6f 1f 5c bb f2 4a 61 3e 95 40 44 3e
       0.35582307 -0.0033588072 0.22001246 0.19165261
000350 09 bd e3 bd 78 11 0e be 2f 34 2e be 05 f5 9a 3c
       -0.1112004 -0.13873851 -0.17012094 0.018915663
000360 6e 6f 6d 3e 36 a9 1b be c1 63 e8 bc e6 aa 9b bd
       0.23187038 -0.15201268 -0.028367879 -0.07600956
000370 9b 81 fe 3c b1 d2 b2 bd a3 9c 55 3e 4e 1d d3 bd
       0.03106766 -0.087315924 0.20860533 -0.10308324
000380 e6 84 78 be 40 4e e1 bc c6 8e 1c bd a7 00 e2 3d
       -0.24269447 -0.027503133 -0.038222097 0.11035281
000390 4a 23 67 bd d6 25 03 be 2e 82 eb ba c7 52 77 3e
       -0.05643014 -0.12807402 -0.0017967874 0.24152671
0003a0 94 8f 35 3b 15 1e 00 be 97 78 51 3c ee 4b 6e bd
       0.0027703987 -0.12511475 0.0127850985 -0.05817788
0003b0 65 e2 7d 3e 56 1d ce 3b 78 a6 69 3e 38 f9 5a bc
       0.24793394 0.006290118 0.22817409 -0.013365082
0003c0 fe ff 74 3e 30 4f e7 bd 2f 3e a3 3e e4 55 8e 3e
       0.23925778 -0.11294401 0.3188338 0.27799904
0003d0 41 42 0e 3e 4a ab 98 3e aa 03 92 bd 3d e2 f1 3d
       0.13892461 0.29818183 -0.07129605 0.1181073
0003e0 d8 42 e6 3c 32 0d 69 3e 09 00 43 be a2 47 ba 3d
       0.028108045 0.2275894 -0.19042982 0.09095694
0003f0 3b 37 4a 3c 63 d5 50 bd 6a 03 d4 3b c2 2d d3 be
       0.0123422695 -0.05098475 0.0064701336 -0.41245848
