ES1/rpi/models/dht_cnn.tflite (tflite, 70288 bytes, 6 tensors)

dense_4/bias f4 [2]
0	0x3eab7c4d	0.3349327
1	0x3f3c705a	0.73608935

dense_3/bias f4 [64]
0	0xbcc00b51	-0.023442896
1	0x3efc3a8f	0.49263427
2	0xbd3bb144	-0.04582335
3	0x3f35c71b	0.71006936
4	0xbc2aafda	-0.010417903
5	0xbc9759ba	-0.018475402
6	0x3f395397	0.7239317
7	0xbd34e5d1	-0.044164483
8	0x3f32e964	0.69887376
9	0xbd270393	-0.040774893
10	0xbe29756a	-0.16548696
11	0x3ea9edf5	0.3318936
12	0x3f058608	0.5215764
13	0xbc9917f2	-0.018688176
14	0x3f180616	0.59384286
15	0xbd1cf3b9	-0.03831837
16	0xbc8c95be	-0.017161246
17	0x3f2bfb33	0.67180175
18	0xbc2c6748	-0.010522671
19	0xbca9660f	-0.020678548
20	0x3f27464f	0.6534166
21	0x3f05d332	0.52275383
22	0x3efbda1a	0.49189836
23	0x3f1a021b	0.6015946
24	0x3ee22e00	0.4417572
25	0xbc8c1624	-0.017100401
26	0x3eff28bb	0.49835762
27	0x3f22ee8d	0.6364525
28	0x3f260096	0.64844644
29	0xbcb39aad	-0.021924341
30	0xbde79ad4	-0.11308828
31	0x3f328fd1	0.69750696
32	0xbd4865d0	-0.04892522
33	0x3ecbb976	0.39789933
34	0x3f312e9a	0.69211733
35	0x3f2ad29b	0.6672761
36	0xbd8f7569	-0.07004816
37	0xbc54701b	-0.012966181
38	0xbd64b2be	-0.055834524
39	0xbc9429d8	-0.018086359
40	0xbd4a8b0b	-0.049449008
41	0x3f095f07	0.53660625
42	0xbcb58797	-0.02215938
43	0x3f338e10	0.70138645
44	0xbc2afc84	-0.010436181
45	0x3ec78183	0.38965997
46	0x3f2cb687	0.67466015
47	0x3f2c26fd	0.6724699
48	0x3e942cac	0.28940332
49	0x3f1f4c62	0.62225926
50	0xbc9eb72f	-0.019374458
51	0xbc9c9b8b	-0.019117137
52	0x3f048ccc	0.5177734
53	0x3f35d988	0.7103505
54	0x3f051060	0.5197811
55	0xbd55d136	-0.052201472
56	0x3f2a7746	0.66588247
57	0xbc1f1cf0	-0.009711489
58	0xbce34852	-0.027744446
59	0x3f1431b3	0.57888335
60	0xbbf24d97	-0.0073945033
61	0x3f29dbd2	0.66351044
62	0x00000000	0.0
63	0xbd02194d	-0.03176241

conv1d/bias f4 [64]
0	0xbe015dae	-0.12633392
1	0x3dc7b82b	0.09751924
2	0x3f029d43	0.5102121
3	0x3eb4ed91	0.353375
4	0x3f0ae344	0.5425303
5	0x3f12c1b7	0.57326835
6	0xbe3b37f6	-0.18283066
7	0x3f3a73ac	0.7283275
8	0x3d53776a	0.051627554
9	0xbbeda1aa	-0.007251938
10	0x3eb3b4bd	0.3509883
11	0xbe35bff7	-0.1774901
12	0xbdf885e3	-0.12134912
13	0xbd892c36	-0.06697886
14	0xbe2a4935	-0.16629489
15	0xbe0e7471	-0.13911606
16	0x3f4fd6c6	0.81187093
17	0xbefbddda	-0.49192697
18	0x3eafb5ff	0.3431854
19	0x3d3161a8	0.043306023
20	0x3f3131ae	0.6921643
21	0x3f07f05e	0.53101146
22	0xbee8d13e	-0.4547214
23	0x3f0b3092	0.5437099
24	0x3f457a37	0.7713961
25	0xbebacd0f	-0.36484572
26	0x3eb78b10	0.35848284
27	0x3e3e7deb	0.18602721
28	0xbca4a734	-0.02009926
29	0xbe924906	-0.28571337
30	0x3efb9c22	0.49142557
31	0x3dc4a9c5	0.096026935
32	0x3f59152b	0.84797925
33	0x3efd1361	0.49428847
34	0x3ea8b9ba	0.32954198
35	0xbe1b9ca9	-0.1519648
36	0x3ec4e43c	0.3845538
37	0x3ecdf690	0.40227175
38	0x3ec0877b	0.37603363
39	0x3f03df70	0.51512814
40	0x3ed80dc8	0.42198014
41	0xbdc483d6	-0.09595458
42	0x3f419df8	0.75631666
43	0xbdd493f9	-0.10379786
44	0x3ab66522	0.0013915638
45	0x3f1cba0a	0.61221373
46	0x3ed99046	0.42492884
47	0x3f298de7	0.6623215
48	0x3d8fd19f	0.07022404
49	0xbea851e8	-0.3287499
50	0x3e7767b7	0.24160658
51	0xbe738e39	-0.23784722
52	0x3f2772d6	0.654096
53	0x3f139d2f	0.5766172
54	0xbc3419cf	-0.010992481
55	0xbd613b73	-0.054988336
56	0xbdae7727	-0.0851882
57	0x3f0525de	0.52010906
58	0x3df10fad	0.11770568
59	0xbddc60b5	-0.10760633
60	0xbe0c1b73	-0.13682346
61	0xbe2c0f7a	-0.16802779
62	0x3c811473	0.015756821
63	0x3ca70f83	0.020393139

sequential_1/dense_3/MatMul f4 [64, 256]
0	0xbd082b0d	-0.03324418
1	0x3db38276	0.08765118
2	0xbdfc1e9e	-0.12310527
3	0xbde92c11	-0.11385358
4	0x3d995600	0.07487106
5	0x3d826749	0.06367356
6	0xbcbe2039	-0.023208724
7	0x3da0de57	0.07854908
8	0xbc25454c	-0.010087322
9	0x3c51fd8f	0.012816801
10	0xbdd201a9	-0.10254223
11	0x3d83c66e	0.06434332
12	0xbd9f3d1a	-0.07775326
13	0xbcf4ed45	-0.029898295
14	0x3db88d46	0.09011321
15	0x3cdd5666	0.027018737
16	0x3d1da05d	0.038483012
17	0xbc284196	-0.010269543
18	0x3dc8a096	0.09796254
19	0xbdd3437d	-0.10315607
20	0xbe021c25	-0.12706049
21	0x3da4b226	0.080417916
22	0x3d9feb1f	0.07808518
23	0x3d82ae35	0.063808836
24	0x3d66f711	0.056387965
25	0xbce77ae5	-0.028256843
26	0xbde5bd2a	-0.11217721
27	0x3cf0354d	0.02932229
28	0xbd1c99e6	-0.038232706
29	0x3d15ff68	0.036620528
30	0x3d983a85	0.07433037
31	0x3d5ef6ee	0.05443471
32	0x3d4072d2	0.0469845
33	0xbd11f8f7	-0.035637822
34	0x3da7319c	0.08163759
35	0xbcdfd9e8	-0.027325585
36	0x3b021ec7	0.001985477
37	0x3c17f0ec	0.009273749
38	0xbdd98f99	-0.10623092
39	0x3d91135e	0.07083772
40	0xbd7681b6	-0.060182296
41	0x3cde8023	0.02716071
42	0xbdac04cf	-0.08399355
43	0xbda15ef8	-0.07879442
44	0x3b939df5	0.004504914
45	0xbdc806aa	-0.09766896
46	0x3c908e1e	0.017645892
47	0x3c9f738d	0.019464279
48	0xbd9f23e0	-0.077705145
49	0x3da3ae9c	0.079922885
50	0xbdd4ebd2	-0.10396542
51	0x3dbc4699	0.09193153
52	0x3c68bdfd	0.014205453
53	0xbda0490e	-0.07826434
54	0x3b54f2b0	0.0032493286
55	0xbdb757a8	-0.08952266
56	0xbe185df7	-0.14879595
57	0x3ce99534	0.028513528
58	0x3dc56230	0.096378684
59	0x3d2f1b96	0.042750917
60	0x3d439098	0.047745317
61	0xbde549be	-0.11195706
62	0xbdc612ea	-0.09671576
63	0xbcfa1f89	-0.030532615
64	0xbd62405a	-0.05523715
65	0xbdd7043e	-0.10498856
66	0x3d4be2ab	0.049776714
67	0xbe07f4ab	-0.13276927
68	0x3d6cb7d1	0.05779249
69	0x3cd5985c	0.026073627
70	0x3cf9aabb	0.030476918
71	0x3bde4445	0.0067830407
72	0xbdd570f8	-0.10421938
73	0x3da13574	0.078715235
74	0xbe061920	-0.13095522
75	0xbdd9bc46	-0.106316134
76	0x3c19bfcb	0.009384106
77	0x3d680d19	0.056653116
78	0xbdfbcb03	-0.12294581
79	0xbb8d9b51	-0.0043214937
80	0x3dbbde67	0.09173279
81	0x3d10f8bf	0.035393473
82	0xbd955c30	-0.07292974
83	0x3de518e8	0.11186391
84	0x3d1da0f9	0.038483594
85	0x3cd6ed23	0.026236122
86	0x3dec6280	0.11542225
87	0xbe1c3a78	-0.15256679
88	0xbd0c2025	-0.034210343
89	0xbcffa529	-0.031206684
90	0x3da61e38	0.081112325
91	0x3cc7c3d7	0.024385376
92	0xbdb7e0e9	-0.08978445
93	0x3bd8c168	0.0066148527
94	0xbe01e91a	-0.12686577
95	0x3da63737	0.08116
96	0x3d696886	0.056984447
97	0xbd43e6d9	-0.047827575
98	0x3ba62337	0.005070116
99	0xbd002bf7	-0.03129193
100	0xbe075c8e	-0.132189
101	0xbd486e43	-0.04893328
102	0xbe083298	-0.1330055
103	0x3d5ebfd8	0.054382175
104	0xbe094f78	-0.13409221
105	0x3dbafa40	0.09129763
106	0x3d5ee040	0.05441308
107	0xbde820e0	-0.113343954
108	0x3da08471	0.07837761
109	0x3d161a32	0.036646076
110	0xbe077869	-0.13229527
111	0x3dc8c1ec	0.09802613
112	0x3d75bfd1	0.059997384
113	0x3d363915	0.04448803
114	0x3d601b40	0.054713488
115	0xbd811ae6	-0.063039586
116	0x3dca3180	0.098727226
117	0xbe01e03e	-0.12683198
118	0xbca3db22	-0.020001952
119	0xbdc3d707	-0.095624976
120	0x3dba2c3f	0.090904705
121	0xbe0d1daf	-0.13780855
122	0xbc9cff04	-0.01916457
123	0x3dbe5a37	0.09294551
124	0xbc90c9f2	-0.01767442
125	0x3de008e0	0.10939193
126	0x3d90778c	0.07054052
127	0xbe10ef43	-0.14153771
128	0xbe034086	-0.12817582
129	0xbd015fd4	-0.03158553
130	0xbe0c2297	-0.1368507
131	0x3d56d110	0.05244547
132	0xbe15451d	-0.14577146
133	0x3cfee9c1	0.031117322
134	0xbe17c724	-0.1482206
135	0xbb90438e	-0.0044025844
136	0xbdf901b3	-0.12158527
137	0x3dc130f9	0.09433169
138	0xbd596c64	-0.053081885
139	0x3d7feef9	0.06248376
140	0xbc80ce4c	-0.01572337
141	0x3d6e2bf8	0.0581474
142	0xbda1074b	-0.07862719
143	0xbd9c7b01	-0.07640649
144	0xbe043263	-0.12909846
145	0xbd80f8eb	-0.06297477
146	0x3bc6bbb1	0.006064855
147	0xbe1bec52	-0.15226868
148	0xbdf3b72a	-0.1190017
149	0xbdd12338	-0.102117956
150	0x3c429e6f	0.011878594
151	0x3d8cf530	0.06882703
152	0xbd1acf67	-0.03779545
153	0x3d4718bb	0.04860757
154	0x3db6c446	0.08924155
155	0x3c955e52	0.018233452
156	0xbdf44b8c	-0.11928472
157	0x3da09ed3	0.07842793
158	0xbe0c9831	-0.13729931
159	0xbe012c62	-0.12614587
160	0x3dee226b	0.116276585
161	0xbdd683dc	-0.10474369
162	0xbd71bf94	-0.059020594
163	0xbe186602	-0.14882663
164	0x3da4c919	0.08046169
165	0x3d904285	0.070439376
166	0xbd98092f	-0.07423627
167	0xbd02af3d	-0.0319054
168	0x3d1f9164	0.038957015
169	0xbde99da3	-0.1140702
170	0x3b151a2e	0.00227512
171	0x39c33984	0.0003723615
172	0xbdc96f40	-0.098356724
173	0x3d4c8c3a	0.049938418
174	0xbd19c5ce	-0.037542157
175	0xbdbdf884	-0.09275916
176	0x3db39b7d	0.087698914
177	0xbda6a919	-0.081377216
178	0xbd9f8742	-0.0778947
179	0xbdda432c	-0.10657343
180	0xbc449194	-0.011997599
181	0x3d09ea9c	0.033671007
182	0x3d04b54d	0.032399464
183	0x3dff3bd9	0.12462587
184	0x3d950014	0.072754055
185	0x3d7d3ea2	0.06182731
186	0xbd4ae56c	-0.0495352
187	0x3da15056	0.07876651
188	0xbd700ac8	-0.05860403
189	0xbcecb805	-0.028896341
190	0x3dcf3294	0.10117069
191	0x3a12032c	0.00055699307
192	0x3debd28e	0.115147695
193	0x3db59393	0.08866038
194	0xbe0e932b	-0.13923328
195	0xbcca1eaa	-0.024672825
196	0xbd44da61	-0.048059825
197	0xbe153d38	-0.14574134
198	0xbdf0b70e	-0.11753665
199	0xbbaa95c1	-0.0052058403
200	0x3dce8703	0.10084345
201	0xbc8d153f	-0.017222045
202	0x3cc16c97	0.02361135
203	0xbd31dc8f	-0.04342323
204	0xbdece0c2	-0.11566307
205	0xbc232573	-0.009957659
206	0xbd8c7724	-0.06858662
207	0xbcc8456f	-0.024447171
208	0x3d489b0a	0.04897598
209	0xbdc2dca1	-0.09514738
210	0xbdb6c687	-0.08924585
211	0x3c987d91	0.018614562
212	0xbdab83c2	-0.0837474
213	0x3dc76d8f	0.097376935
214	0x3dc48c96	0.09597127
215	0xbda957aa	-0.08268674
216	0xbbbdf71b	-0.0057972795
217	0xbdf9371f	-0.12168717
218	0x3dab1424	0.08353451
219	0x3d7e025c	0.06201397
220	0x3d5df4a0	0.05418837
221	0x3de4faac	0.11180624
222	0xbdf98732	-0.121839896
223	0xbbcc2b68	-0.0062307604
224	0x3d65029b	0.055910688
225	0xbd2dd028	-0.04243484
226	0x3cae6a17	0.021290822
227	0xbd785e35	-0.060636718
228	0x3d3bc841	0.045845274
229	0xbd301cd3	-0.04299624
230	0x3da670d8	0.08126992
231	0x3d2ceaf5	0.04221626
232	0xbd5577b7	-0.052116122
233	0xbdaba864	-0.08381727
234	0xbddb4915	-0.10707299
235	0x3c88ad97	0.016684337
236	0xbddd1b4d	-0.10796223
237	0xba426357	-0.00074153155
238	0x3d3b521b	0.0457326
239	0x3dd5f921	0.10447908
240	0xbd8ba47d	-0.06818483
241	0x3dc50c66	0.096215054
242	0xbddfec3a	-0.109337285
243	0xbcd4c7b1	-0.025974127
244	0x3b9f18e5	0.0048552626
245	0x3d07ce97	0.033156004
246	0xbd944627	-0.07239943
247	0xbe131fe0	-0.14367628
248	0x3c0a9cab	0.008460204
249	0xbd90db26	-0.07073049
250	0x3d7ded1f	0.061993714
251	0xbe035f0b	-0.12829225
252	0xbd07ac93	-0.033123564
253	0xbdddd83d	-0.1083226
254	0xbe01804c	-0.12646598
255	0xbdc1e924	-0.09468296

sequential_1/dense_4/MatMul f4 [2, 64]
0	0xbe471274	-0.19440633
1	0xbe64263e	-0.22280213
2	0x3da12d93	0.07870021
3	0x3e478edf	0.19488095
4	0xbddff5f9	-0.109355874
5	0x3d5ed8cc	0.054405972
6	0x3e9421f0	0.28932142
7	0x3e0ba87f	0.13638495
8	0x3e1b647a	0.15175048
9	0x3deec589	0.116587706
10	0x3ed23f6c	0.41064012
11	0xbea2c00a	-0.3178714
12	0xbe8f7def	-0.28025767
13	0xbe92e9d7	-0.2869403
14	0xbe4e6282	-0.20154765
15	0x3e1d51a1	0.1536317
16	0x3dcb36da	0.099225715
17	0x3e85f595	0.26163927
18	0xbe12e722	-0.14345983
19	0x3de626e6	0.11237888
20	0x3dde8c30	0.108665824
21	0xbe212b42	-0.15739158
22	0xbc8f2950	-0.017475754
23	0xbdd34833	-0.10316505
24	0xbeb5ed1d	-0.35532466
25	0x3e96203a	0.29321462
26	0xbe5c9750	-0.21542096
27	0xbbc93801	-0.0061407094
28	0x3e3d6966	0.18497238
29	0xbe764017	-0.24047886
30	0x3e9ca2f8	0.30593085
31	0x3e544d10	0.20732522
32	0xbe4c5c5c	-0.19957107
33	0x3dc70f12	0.09719671
34	0x3daa1515	0.08304802
35	0x3d7967aa	0.060889877
36	0x3ecc558d	0.3990902
37	0x3ea8462a	0.3286603
38	0x3c6867f7	0.014184943
39	0x3de857a3	0.113448404
40	0xbe338e04	-0.17534643
41	0xbe24d463	-0.16096644
42	0x3e81c530	0.25345755
43	0x3e6b913c	0.23004621
44	0x3e0498a2	0.1294885
45	0xbd8fdce6	-0.07024555
46	0x3e5ba501	0.21449663
47	0x3f2f23a1	0.6841374
48	0xbee4060c	-0.44535863
49	0xbd374a83	-0.044748794
50	0xbe49d773	-0.19711094
51	0xbe83a52b	-0.2571195
52	0xbda7b9da	-0.08189745
53	0x3e439026	0.19097957
54	0xbe1b4c40	-0.15165806
55	0x3e724320	0.23658419
56	0x3dc79f39	0.09747166
57	0xbe99c542	-0.30033308
58	0x3c46add8	0.0121264085
59	0xbd93ac9b	-0.07210656
60	0x3e6ad3d2	0.22932366
61	0x3e80423e	0.2505054
62	0xbe6bd716	-0.23031268
63	0xbe676cfa	-0.22600165
64	0xbd0ef517	-0.034901705
65	0x3e4e5934	0.20151216
66	0xbe00411d	-0.12524839
67	0x3ea99742	0.33123213
68	0xbdfbe6cc	-0.122998804
69	0xbe35a71e	-0.17739531
70	0x3eae11f7	0.3399808
71	0xbdca15fe	-0.09867476
72	0x3ec7af85	0.39001098
73	0xbd426ec0	-0.0474689
74	0xbec2d987	-0.38056585
75	0x3dccbe65	0.099972524
76	0x3e9f14d0	0.31070566
77	0xbd966c2d	-0.07344852
78	0x3eb37e10	0.35057116
79	0xbdb222b3	-0.086980246
80	0xbda866c5	-0.08222727
81	0x3e02d3ed	0.12776156
82	0xbe50b34a	-0.20380893
83	0x3c0eb649	0.008710452
84	0x3e53f42c	0.20698613
85	0x3e4efcad	0.20213576
86	0xbbcc8fab	-0.0062427125
87	0x3ea1e178	0.31617332
88	0x3e350621	0.17678119
89	0xbd61b66f	-0.055105623
90	0x3e25bba8	0.16184866
91	0x3e971694	0.29509413
92	0x3e0962e4	0.1341663
93	0xbde36586	-0.111033484
94	0xbe9e667e	-0.3093757
95	0x3e975171	0.29554322
96	0xbdb7a66d	-0.0896729
97	0xbdf7bc17	-0.12096422
98	0x3ec2be2b	0.38035712
99	0x3e9d50e4	0.30725777
100	0xbe983f71	-0.29735902
101	0xbdeb2dd3	-0.1148335
102	0xbe6a82dd	-0.22901483
103	0xbe71d64e	-0.23616907
104	0xbe3c0315	-0.1836055
105	0x3e6ba06e	0.23010418
106	0xbdb4cf69	-0.08828623
107	0x3e8a245c	0.26980865
108	0xbe65c662	-0.22438958
109	0xbddd9bc0	-0.108207226
110	0x3e549eb2	0.20763662
111	0x3e033cc6	0.12816152
112	0x3df5a721	0.11994768
113	0x3e976373	0.2956806
114	0xbd8ab22a	-0.06772263
115	0xbe55a4e4	-0.20863682
116	0x3e11fbcb	0.14256208
117	0x3ed22ac3	0.4104825
118	0x3e2ddeff	0.16979598
119	0xbe395673	-0.18099384
120	0x3e810a2c	0.25203073
121	0xbc8c572c	-0.01713141
122	0xbe274498	-0.1633476
123	0x3e65ea1c	0.22452587
124	0xbda5b7c4	-0.08091691
125	0x3e18efe2	0.14935258
126	0xbe9999d9	-0.3000019
127	0xbc901a76	-0.017590743

sequential_1/conv1d/conv1d f4 [64, 1, 3, 2]
0	0xbc96b68b	-0.01839759
1	0x3cae48e5	0.021274993
2	0xbd3aaece	-0.045576863
3	0xbe0c1d2a	-0.13683
4	0x3da34fd3	0.0797421
5	0x3e0d3c27	0.13792478
6	0x3f02385e	0.5086726
7	0xbcfc06b6	-0.030764919
8	0xbf459085	-0.77173644
9	0x3eb1c572	0.3472095
10	0x3e8a17f8	0.26971412
11	0xbebb2a28	-0.365556
12	0xbd03687d	-0.03208207
13	0x3b5a8d9e	0.003334857
14	0x3dac1970	0.08403289
15	0xbdfadb5e	-0.12248872
16	0xbe1a94c4	-0.15095812
17	0x3e64febb	0.22362797
18	0xbdbc218a	-0.091860846
19	0xbe19a4a3	-0.1500421
20	0x3e6c467f	0.23073767
21	0xbe0e9e72	-0.1392763
22	0xbe1a2dfa	-0.15056601
23	0x3ebf5f32	0.37377316
24	0x3e13ef07	0.1444665
25	0xbe27fbae	-0.16404602
26	0xbcd8c0f7	-0.0264592
27	0xbdac9e84	-0.08428672
28	0xbe381fb9	-0.17980851
29	0x3ec3e8a0	0.38263416
30	0x3e282aaa	0.16422525
31	0xbe304e86	-0.17217454
32	0xbcdf8fbc	-0.027290218
33	0xbd8fa4db	-0.070138656
34	0xbe4a51d2	-0.19757774
35	0x3ec36e0d	0.381699
36	0xbe49af82	-0.19695857
37	0xbdc6fbc1	-0.09715987
38	0x3daeaab9	0.085286565
39	0x3d151194	0.036393717
40	0x3dfb5464	0.122719556
41	0x3e04783b	0.1293649
42	0xbdc97e91	-0.09838594
43	0xbd988d4d	-0.07448826
44	0x3e0afa03	0.13571934
45	0xbe159b74	-0.14610082
46	0xbb98d655	-0.0046642222
47	0x3ede54a2	0.43423945
48	0xbe73809b	-0.23779528
49	0x3d14c269	0.036318216
50	0x3ee6c7e1	0.4507437
51	0xbe8ae5be	-0.27128404
52	0xbe67b479	-0.22627439
53	0x3e86b82c	0.26312387
54	0xbe1ba93f	-0.15201281
55	0xbcea143c	-0.028574102
56	0xbf06ed63	-0.52705973
57	0x3cff6be0	0.031179368
58	0x3f1b1ec5	0.60593826
59	0x3cbd7897	0.02312879
60	0x3e5a9858	0.21347177
61	0x3d790fc9	0.06080607
62	0xbd5be51e	-0.0536853
63	0xbb1a4667	-0.0023540498
64	0xbe9c1111	-0.3048177
65	0xbdd91b67	-0.1060093
66	0xbd2830cc	-0.04106216
67	0xbcb2507d	-0.021766895
68	0x3ec20488	0.37894082
69	0xbc85a6f2	-0.016314957
70	0xbedc616e	-0.43043083
71	0x3da19c43	0.07891133
72	0x3d6d74e9	0.057972822
73	0xbec0789e	-0.37592024
74	0x3dbddf06	0.09271054
75	0x3e1d555b	0.15364592
76	0xbe3c6bb0	-0.18400455
77	0x3e9479ce	0.2899918
78	0x3e1ef98d	0.15524884
79	0x3d31a191	0.043366972
80	0xbe4d2d89	-0.20036902
81	0xbbb9f7eb	-0.005675306
82	0x3d3cecda	0.046124317
83	0xbc7db946	-0.015486067
84	0xbc7a8639	-0.01529079
85	0x3de9211f	0.113832705
86	0x3c5e739c	0.013577368
87	0xbe2d4f03	-0.16924672
88	0xbd0f92be	-0.035052054
89	0x3cc45fef	0.023971526
90	0xbce7d20b	-0.028298398
91	0x3da401db	0.080081664
92	0x3e8f281e	0.27960294
93	0xbd307586	-0.04308083
94	0xbe79ab24	-0.24381691
95	0xbccfb4b8	-0.025354728
96	0x3d1c2a9b	0.03812657
97	0x3df13cb5	0.11779157
98	0xbcca2ace	-0.024678614
99	0xbdc71705	-0.097211875
100	0x3dcc64c6	0.099801585
101	0x3e5144a9	0.20436348
102	0xbdb39ab1	-0.087697394
103	0x3b6f32fd	0.0036498897
104	0x3e98c3ef	0.29836985
105	0x3cc8d014	0.024513282
106	0xbe6309de	-0.22171733
107	0x3ee1d8ae	0.44110626
108	0xbd593a6a	-0.053034224
109	0xbe277cd1	-0.16356207
110	0x3df12fb6	0.11776678
111	0xbaaa8ea4	-0.0013012481
112	0x3c9bcacd	0.019017601
113	0x3e732a7f	0.2374668
114	0xbcc3af0d	-0.023887182
115	0xbdddf3cc	-0.10837516
116	0x3d120cfe	0.03565692
117	0xbd35fbf8	-0.04442975
118	0xbe3999ee	-0.18125126
119	0x3e17f666	0.14840087
120	0xbdda7887	-0.1066752
121	0xbe2fb228	-0.17157805
122	0x3d58ef25	0.05296244
123	0xbd1c004b	-0.038086217
124	0x3e86fc3b	0.26364312
125	0x3e009c59	0.12559642
126	0x3deda7d9	0.1160428
127	0x3d3f775f	0.0467447
128	0x3dc44a29	0.095844574
129	0xbdac7f79	-0.08422751
130	0xbe9f25b3	-0.3108345
131	0x3deec53e	0.11658715
132	0x3d9c6e38	0.0763821
133	0x3eadf2c7	0.33974287
134	0xbddadae7	-0.106862836
135	0x3ef9a332	0.4875732
136	0x3d65e10e	0.056122832
137	0xbef65ead	-0.48119107
138	0xbc2b65be	-0.010461269
139	0xbd1e6cf2	-0.038678117
140	0x3e60479c	0.21902317
141	0xbe27a4c9	-0.16371454
142	0xbe9df472	-0.3085056
143	0x3e9c37b9	0.30511263
144	0x3dbd43f6	0.09241478
145	0xbdaa4422	-0.083137766
146	0x3d8fad88	0.0701552
147	0x3d878a58	0.06618184
148	0xbe64b231	-0.223336
149	0x3e612073	0.21985035
150	0xbd82b76a	-0.0638264
151	0x3ea96be9	0.3309014
152	0x3ca04ec6	0.019568812
153	0x3e9e19cf	0.30879065
154	0x3d9e9866	0.077439114
155	0xbecf6a7e	-0.40510935
156	0xbe47ec69	-0.19523777
157	0xbc0b0b08	-0.008486517
158	0xbba3730d	-0.0049880804
159	0xbe06fe42	-0.13182929
160	0x3ea7cd2d	0.32773724
161	0x3dc62f41	0.09676982
162	0xbe11f39c	-0.14253086
163	0xbdcdf4e7	-0.10056477
164	0xbc8067a6	-0.015674423
165	0xbd1a4f2f	-0.03767317
166	0x3e661894	0.22470313
167	0x3e046190	0.12927842
168	0x3dffa198	0.124819934
169	0xbd8e2980	-0.06941509
170	0x3e56a265	0.20960386
171	0xbd785019	-0.060623262
172	0xbed8aae4	-0.4231788
173	0x3e31766c	0.1733033
174	0xbe7a14a6	-0.24421939
175	0x3c8474be	0.016168948
176	0xbdf0ce7a	-0.11758132
177	0x3de7f2ad	0.113255836
178	0x3e99211c	0.29908073
179	0xbdfe6aca	-0.12422712
180	0xb934876e	-0.00017216589
181	0xbdfc27b9	-0.12312264
182	0x3debd6b9	0.115155645
183	0xbbaf9791	-0.0053586443
184	0xbe3ed4f2	-0.1863592
185	0x3e669eae	0.22521469
186	0xbd9e0686	-0.07716088
187	0xbdbdf194	-0.09274593
188	0x3ea87f35	0.3290955
189	0xbf044174	-0.51662374
190	0xbe979894	-0.29608595
191	0x3f255331	0.64580065
192	0x3dca8703	0.09889033
193	0xbdb8608d	-0.090027906
194	0x3d0ea2cd	0.034823228
195	0x3d9a5075	0.07534877
196	0xbe4fef4f	-0.20306133
197	0x3e70ec08	0.23527539
198	0xbc69f96a	-0.014280656
199	0xbde83ca9	-0.11339695
200	0x3d38103d	0.04493736
201	0xbc215b1e	-0.009848384
202	0x3df1a5cd	0.11799202
203	0x3e5feae7	0.21866952
204	0x3d8e9997	0.06962889
205	0xbe3d6ef2	-0.18499354
206	0xbba3ca07	-0.004998449
207	0x3e1de93e	0.15421006
208	0xbe769fc6	-0.24084386
209	0x3cef409c	0.029205613
210	0x3de48a26	0.11159162
211	0xbd4d3e9d	-0.05010854
212	0xbe09e955	-0.13467915
213	0x3dfb904f	0.12283384
214	0x3bdfe50c	0.0068327244
215	0xbcf56bfe	-0.029958721
216	0x3e2959fe	0.16538236
217	0xbdd99aca	-0.10625227
218	0xbd71189f	-0.05886137
219	0xbd4015ed	-0.04689591
220	0xbe3c9070	-0.18414474
221	0x3e709f64	0.23498303
222	0xbd150990	-0.036386073
223	0xbd8363b5	-0.06415502
224	0x3e0cc34b	0.13746373
225	0xbdd59e68	-0.10430604
226	0xbe2b477a	-0.16726485
227	0x3e89765f	0.26848122
228	0x3d8bb1a8	0.068209946
229	0xbe0a8a54	-0.1352933
230	0x3dd3bd60	0.10338855
231	0xbe14640a	-0.14491287
232	0xbeac7cc5	-0.33688942
233	0x3e90a92e	0.28254074
234	0x3e4e60c5	0.20154102
235	0xbdab5741	-0.08366252
236	0x3d0f02b9	0.034914706
237	0xbd939ac6	-0.07207255
238	0xbe99e61d	-0.30058375
239	0x3e8d3830	0.2758193
240	0xbc465a58	-0.012106501
241	0xbe0a680f	-0.13516258
242	0xbdeea5ed	-0.116527416
243	0x3d53e2ed	0.051730085
244	0x3cba0fbe	0.022712585
245	0x3e1d0490	0.15333772
246	0x3d2a8b0f	0.041636523
247	0x3bc4fa51	0.0060112854
248	0xbdfee272	-0.12445535
249	0xbe0962a2	-0.13416532
250	0x3d6c0cd0	0.057629406
251	0x3e0616e5	0.13094671
252	0xbd91a420	-0.071113825
253	0xbd577596	-0.052602373
254	0x3de2c601	0.110729225
255	0x3e1f6fad	0.15569945
